test/model_olda_salami.npy (npy, 100432 bytes, 1 tensors)

array f8 [112, 112]
00000000: 4c54 305f 1033 b13f f357 29d7 186c adbf
00000010: bebc f869 5307 9e3f 1a5a 0b3b 2afb 98bf
00000020: cb32 0821 def0 473f a667 2903 fb71 973f
00000030: aa2d 46b1 fc55 853f b14e ae9e bf15 9c3f
00000040: e451 b408 9846 91bf 42d6 73a6 4d01 9fbf
00000050: 030f eb39 ff35 96bf f01c 8719 e8ce 95bf
00000060: fc49 8859 a402 733f 7a66 eb2a 89ea 74bf
00000070: e344 7d74 1b17 643f 198c 4b0c 5765 9ebf
00000080: b3cd 3dc8 4f58 98bf a54a 6e40 e109 b03f
00000090: cbff 2043 785f 85bf 8a5e e0a4 f91c 8dbf
000000a0: df4a 48ec 881f 903f 8778 be70 3e5f 9fbf
000000b0: 4f57 e26e 0d46 893f 0173 96d5 71c5 893f
000000c0: 211c 52a2 a791 7cbf ee02 0f98 34a0 953f
000000d0: 4bd3 89d8 a9f6 85bf 903a 4e5f 84a6 92bf
000000e0: 9060 47c5 a81a 9c3f 2608 ceab 3df3 81bf
000000f0: cd71 90ec c05d 623f 2d23 6733 4afd 773f
00000100: 3fee 8eac 377a 403f 4e54 f497 bfdd 893f
00000110: 2eda 0133 75da 943f a3fe 0c06 b198 893f
00000120: 5f65 5c40 7196 463f d50d 6470 dce0 953f
00000130: 7cdd 3994 5795 863f a1b4 ecb6 e484 a13f
00000140: e0d9 6438 f375 813f 9661 f1cc 53df 823f
00000150: 585b b5a2 c8de 48bf aaa0 157a 7fa8 873f
00000160: c990 520f babd 023f 02c6 4b3c 4662 2ebf
00000170: 8cd8 5981 f09a febe 1eba 054c e8f4 143f
00000180: 1a14 f44f 9a4d 00bf 6a72 e49b afd1 163f
00000190: de38 c5ea 7d7e 13bf c6be 1a33 948c 113f
000001a0: 6e04 a209 4fc4 10bf edfe e388 f3b9 203f
000001b0: 5428 55e7 20cd ecbe 8ba4 9006 663d 0ebf
000001c0: b8fa 1a24 4015 02bf 86f9 01bb 3a16 0b3f
000001d0: 4d17 57b5 20c4 0bbf 01e2 5dee f89e f53e
000001e0: 7463 42f0 487b d4be 4c20 6917 9bc7 06bf
000001f0: b0dc 965e 5a4e edbe ebe6 83e6 a005 c23e
00000200: 4084 55d4 c95c 103f 4988 c645 dcd2 f0be
00000210: 0e9f d42d 1a1a fc3e 6488 2535 a2ac e1be
00000220: 1237 c89e b5fa ed3e 6031 1115 71c2 e53e
00000230: 6398 de82 eea8 e5be a585 f9fe 69bd f1be
00000240: 697c 5563 32af f93e eedc 9874 dfd3 de3e
00000250: 9500 299d 9853 fcbe 5a7e 6a87 743a f13e
00000260: aeae 1b52 206e 2c3f 64cc deeb 5827 10bf
00000270: cdcb 1479 e337 0cbf d7a4 62a2 ca7f 073f
00000280: 6527 30ae c75c f73e 53e3 eb5e a59e 093f
00000290: 8ab9 0c3e 56cc 253f 3fbc 2c39 649a 13bf
000002a0: 96b5 ed26 e8f2 09bf 315d 5bf1 a28a 083f
000002b0: cac9 66bf d353 ff3e a46c 04e7 157d 0abf
000002c0: 217b 3248 93c0 f7be a5ed 6978 a727 0fbf
000002d0: da66 8102 9a49 d6be 9aac 243b 2e52 ef3e
000002e0: feae 5a9a cbef f03e 6368 42e7 6d5d 003f
000002f0: 7d63 d0d4 3947 f63e 3cf3 55a4 536f f9be
00000300: 3ef8 54ec c46b bcbe 9b3f 0ec7 3db3 e6be
00000310: 5497 9ee4 8a0b c6be cdc3 5372 776a 16bf
00000320: 283e 7b8a c91c ff3e d60b b6c6 97d2 f7be
00000330: e7d3 e9b6 f9d8 c53e 05ef 177a d1a5 f7be
00000340: 73fb 81be 1001 ff3e 14d1 fbae 52c5 fb3e
00000350: 0b54 5d9f c53b 093f b2a2 06b4 fdca 0bbf
00000360: 1cae f6cc 94cc b33f 3119 42b0 ffb1 4cbf
00000370: 0000 0000 0000 f0bf a12f 8137 b552 4ebf
00000380: 0000 0000 0000 f0bf a4ef 3e49 b34e d1bf
00000390: 6e36 14fd 239c d4bf 3e34 6932 2ff7 d8bf
000003a0: 46e6 b418 b56a cabf 3f02 1b79 eb87 c0bf
000003b0: d7d7 69e4 5cd2 c6bf c9d8 a141 cc3a ccbf
000003c0: e13d 2415 3b29 b2bf 1f02 341f b09a 90bf
000003d0: 40a6 7132 bc31 a3bf d5a8 ac00 8ff9 b2bf
000003e0: f10b 0aa2 e644 c1bf a04d 4fce d764 b1bf
000003f0: d7bc 0017 98da b8bf 95c5 c79a 5acd b2bf
00000400: 53ec c92e 9b6b 603f 66ee 7726 2e6d b7bf
00000410: cb15 d71e e885 9ebf cb80 5229 23fa a5bf
00000420: 1fa0 36d5 1b5d b2bf 413f 0d9e 2191 a6bf
00000430: 4553 3370 480f 533f ef9c 6715 bcdb 73bf
00000440: aa17 1193 b882 81bf 8342 af21 f8f1 873f
00000450: eadf b37c 0417 843f f646 104d fd3c af3f
00000460: 2704 b76c 0674 ae3f 16e5 545b 986f a33f
00000470: 6512 e04c 5d6e ac3f 1f38 011f 6faf 593f
00000480: 503c 1901 5b1c aabf 27e2 3feb abf5 9bbf
00000490: 0810 d79c 39c0 9bbf c402 3ab8 b0df 90bf
000004a0: 16d8 a746 8532 92bf 945a 780c 045d 99bf
000004b0: 791e b545 7fa2 603f c816 e21f 06c1 95bf
000004c0: f6e7 f77a bdc1 513f fb98 ba6d f0e3 8fbf
000004d0: f511 8445 0914 77bf c2a8 cdeb a9dd 9abf
000004e0: eea1 7db9 9fb4 10bf 38c7 06c1 eb26 043f
000004f0: f589 ddf8 3636 063f 7934 d18a 8ee2 253f
00000500: 22b5 7677 369f 00bf f87a 9da2 fb44 053f
00000510: c989 1648 0a17 0ebf f160 bd42 77aa 103f
00000520: 41ca 64d6 df05 f7be 4d3f 89bf 9c52 f73e
00000530: b0d8 813e 0439 ee3e c0c7 f93a edf8 c4be
00000540: 8ee3 a09e 5df9 153f dd23 2af3 19e5 13bf
00000550: 5fdc 406f 19e8 1e3f 2aff dfbf 39d3 bebe
00000560: 41a8 455d e9fb 0b3f 53d5 1efd c7ea f93e
00000570: 0549 9a59 f93c f33e 0d4e a177 a871 d43e
00000580: 9cd0 2265 40cf 053f ba8f a266 3212 ffbe
00000590: 674c 8643 2180 fcbe a5c9 5bd7 dccd e13e
000005a0: 0777 e053 d4d7 ee3e 097e 848a 3f9f eabe
000005b0: 64ad b3d6 82f1 f13e f9cc 6ba0 56e2 fe3e
000005c0: 4f40 4042 258d f43e 615b 8691 cedc 01bf
000005d0: b7f4 bd8a 0a3d c03e fc63 b3a0 eb45 fc3e
000005e0: 8c0e 6593 b886 30bf d0e4 76e9 01f2 33bf
000005f0: 10ba 0a2c 82fe 3d3f c46c dc6f 156e 303f
00000600: ca2b 4b39 3c04 2b3f 57d4 c1d2 ae44 17bf
00000610: c93d e74d aad0 313f bad2 21e9 5479 243f
00000620: daf4 9e8b 272e 11bf c92e 87d7 e1c6 133f
00000630: f7f6 4ddc 216d 19bf a4ad fc64 1ccf 013f
00000640: 5b24 d759 056d f8be 838a 1d8d a06d 003f
00000650: c8e3 72e4 4bbf 10bf 19e4 2504 e02e f13e
00000660: 5f05 d7fd 4bf8 08bf b834 e97d 232d db3e
00000670: ae92 c8f2 5440 f7be ce6b 860c bab8 1abf
00000680: 361a c52f b2b1 093f 98da 9040 f7bb 16bf
00000690: 57d6 9927 dccd fcbe d904 ac64 eeff e9be
000006a0: d249 df86 8cbd 11bf b54f d34a 76d6 0e3f
000006b0: 0d1c d21d 94ab 083f e9e0 303f 4b3a f53e
000006c0: 11ac 3144 2bde 023f 26f1 3c11 5512 ecbe
000006d0: db97 4079 fb41 ffbe df87 dad6 7cc9 0b3f
000006e0: 195e 322d 3cd5 bbbf 2ad1 3cc5 3e3f 57bf
000006f0: a569 ff90 8c3c b83f 0e34 1bc6 fb12 57bf
00000700: 2232 4e2f 1fe7 8a3f c89c eff2 31d9 82bf
00000710: 3305 f084 f7eb 733f c055 e245 c396 a03f
00000720: bc90 1b59 a258 933f 745c ba49 b9a4 9a3f
00000730: bd01 a830 a050 393f d87a e750 dd0b 5f3f
00000740: af91 9412 6075 813f 653e e4b4 4011 7c3f
00000750: 40f4 19d9 d0f7 1dbf 6ecb 83dc c3a3 633f
00000760: e9e6 8a22 2461 77bf d4f3 03ed f5ff 7cbf
00000770: f2b7 45bb 8880 6d3f 3b62 836c 78b6 523f
00000780: b4b6 f7bf 77cb 663f eb28 1a7e 5e79 6cbf
00000790: 604f 9689 91a9 74bf dc55 f570 f390 82bf
000007a0: 0684 a88e b97f 81bf b01c e0ac 3394 4dbf
000007b0: c816 becb b4ba 66bf aff1 4490 9dfa 6abf
000007c0: 18a9 d86f b827 68bf a139 5edb 52a7 683f
000007d0: e93e 4403 2a73 6fbf 987f 751e 65a2 493f
000007e0: 55f0 af2a e3c9 46bf c767 7c6a 9635 64bf
000007f0: a983 af9f 2cb6 62bf fc5e 8885 bbdb 703f
0.06718542407937028 -0.05746533991320737 0.02932482084559917 -0.024395618299275147 0.0007306179632578733 0.022895738666512643 0.010417913589455836 0.027426714000809486
-0.016870856791756497 -0.030278409275487535 -0.021690357122465375 -0.021297098692028393 0.004641191474109348 -0.005106483279371349 0.002452424643629146 -0.029683456540521378
-0.02377438220669399 0.06265075514810776 -0.010436000393497033 -0.014215422004823414 0.015745295926602117 -0.030636764174794464 0.012340645738997983 0.0125836270624915
-0.006974844761436423 0.021118947773859746 -0.010724379463889063 -0.018213337246886285 0.027445447007125312 -0.008764726453367965 0.0022419708298129005 0.005856790396543227
0.000502850708577758 0.012629982781201001 0.020364600408777793 0.012498267171053462 0.0006893208489799177 0.02136558948497032 0.011027034960746411 0.0342170213028592
0.00852575317240406 0.00921502560793001 -0.000758979765502636 0.011551853097174398 3.57458501778776e-05 -0.0002318106400234638 -2.918742401055627e-05 7.99433501066167e-05
-3.109576391050629e-05 8.704790431974534e-05 -7.436412369552249e-05 6.694464243639083e-05 -6.396038443946966e-05 0.0001276120933155692 -1.3733522090792764e-05 -5.767791373784925e-05
-3.4490604333017036e-05 5.166403514155191e-05 -5.2959678821502995e-05 2.061937893624473e-05 -4.8831896074734975e-06 -4.3448849215866296e-05 -1.3974221434105656e-05 2.1483881945644774e-06
6.241781109885079e-05 -1.6044305412806184e-05 2.680011936209621e-05 -8.427786870771922e-06 1.4295260336384965e-05 1.0375756263191524e-05 -1.0328240104783866e-05 -1.6918085690047946e-05
2.449451695462867e-05 7.349879362509471e-06 -2.7014300778783145e-05 1.64302259358914e-05 0.00021690506496640144 -6.16214774414189e-05 -5.3822163986437176e-05 4.482113972532349e-05
2.2280141717379883e-05 4.886572047796988e-05 0.00016630699885795643 -7.477986063685135e-05 -4.9493512839098006e-05 4.680928956951115e-05 2.987618423739585e-05 -5.05230244718044e-05
-2.2651908250122193e-05 -5.9423254289615945e-05 -5.313755572522547e-06 1.493502518153658e-05 1.6152096256646056e-05 3.1213680729184184e-05 2.124617212837268e-05 -2.4256582283654934e-05
-1.6940220331630687e-06 -1.082428045309763e-05 -2.6279792892544875e-06 -8.550981563694368e-05 2.9671144743668786e-05 -2.2719028874639554e-05 2.6044321466641635e-06 -2.2552230467084138e-05
2.95678727586473e-05 2.6484291935483897e-05 4.812905164778427e-05 -5.3010814102199223e-05 0.07734041217798232 -0.0008757112959905442 -1.0 -0.0009253868911485061
-1.0 -0.2704284873286673 -0.322030064723413 -0.3900869362158267 -0.20638145166758387 -0.12914794362406387 -0.1782947650241897 -0.22054436878869968
-0.07094163194800941 -0.01621508779953917 -0.037488824041088 -0.07412046209779828 -0.13491518890449997 -0.06794499194011516 -0.09708548127740656 -0.0734459522134528
0.0020044356263589163 -0.09150970877811346 -0.02980768860085962 -0.04292402152464233 -0.07173322635083011 -0.04407601408331497 0.0011633117108448981 -0.004848227216349018
-0.008550111759301721 0.011691988494846988 0.009809527450201434 0.06101218763082088 0.059478951235640225 0.03796077837837168 0.055529513963880096 0.001567705647193225
-0.05099758518610342 -0.027304350121967993 -0.02710046787048273 -0.01647831081800423 -0.017770845830419622 -0.024768889676205122 0.0020306096827516465 -0.02124414033507696
0.0010837889093395759 -0.015571478222522908 -0.0056343424005302805 -0.02623620511750669 -6.372666245869189e-05 3.843695606366024e-05 4.236560117367234e-05 0.00016696920411832567
-3.170380562820598e-05 4.0568284318300994e-05 -5.739212157187011e-05 6.357529553946744e-05 -2.195639299280351e-05 2.224226406816127e-05 1.4411316399992206e-05 -2.5001013098041667e-06
8.382448109579677e-05 -7.589312444102e-05 0.00011789946785333145 -1.837319131947578e-06 5.337530061207174e-05 2.4716486059358122e-05 1.834695794984081e-05 4.8742239134483215e-06
4.1598465615606486e-05 -2.9631692463852096e-05 -2.718020206910997e-05 8.489680776578598e-06 1.4707128340115111e-05 -1.269438901424417e-05 1.7112162294203272e-05 2.9453405683233108e-05
1.9599294447003858e-05 -3.407006642246777e-05 1.9357731470536187e-06 2.6963354724827263e-05 -0.0002521706222930818 -0.0003043417613884493 0.00045767477062500037 0.00025070212710582803
0.00020611987260674 -8.876149212418256e-05 0.00027183683223782875 0.00015620385653715934 -6.55376087754402e-05 7.544282369236899e-05 -9.69936291550197e-05 3.396802332952399e-05
-2.3294318102693892e-05 3.133436406590076e-05 -6.388569555583403e-05 1.638708659743382e-05 -4.7626322821079805e-05 6.4793402701605014e-06 -2.2174164017968005e-05 -0.00010193477203872191
4.900765449860173e-05 -8.672424895981646e-05 -2.7469769042962003e-05 -1.2397638007313076e-05 -6.76743527201825e-05 5.881832599077768e-05 4.705472722670726e-05 2.0244322467472776e-05
3.598756350061555e-05 -1.3385586988705843e-05 -2.9809707101112345e-05 5.299961308692624e-05 -0.10872245887218702 -0.0014188874237791118 0.09467390575392771 -0.001408334610846443
0.01313614237894806 -0.009203329302137311 0.004863707420555574 0.03240022876813553 0.018892800034237864 0.026018996357916227 0.0003862753953001416 0.0018949185647369384
0.008524656836535664 0.006852391014276903 -0.00011431896407461482 0.0023974252145477137 -0.005707875396802933 -0.007080040595835297 0.0036013289010758892 0.0011421371473742243
0.0027825678696363435 -0.0034758420523007725 -0.005044525628722457 -0.009065534481730468 -0.008544397035679562 -0.0009026768036627577 -0.0027745753449746925 -0.0032933308995366155
-0.002948627689666538 0.003009473638434915 -0.0038390942155571606 0.0007822984452268032 -0.0006954535687096012 -0.002466958790944471 -0.002284133106045212 0.004115803247735302
